ppo_actor.pth (torch, 21327 bytes, 8 tensors)

layer1.weight f4 [64, 2]
0	0xbf0674d9	-0.52522045
1	0xbf0c2f87	-0.5476002
2	0xbf59eaab	-0.851237
3	0xbf30cd0d	-0.6906288
4	0xbeb014cb	-0.34390864
5	0xbf105851	-0.5638476
6	0xbdb05e4c	-0.08611736
7	0x3e36ce26	0.17852077
8	0xbf9b058f	-1.2111071
9	0x3ea2e46d	0.318149
10	0xbfa84e9f	-1.3148993
11	0x3e7d77df	0.24752758
12	0x3de02490	0.10944474
13	0x3e96c1ce	0.29444736
14	0xbf8c0192	-1.0937979
15	0xbee4cab5	-0.44685903
16	0x3f0aae2d	0.5417202
17	0xbf2dc261	-0.67874724
18	0xbf9b23d2	-1.2120306
19	0x3e9cd5a3	0.30631742
20	0x3f09d5fd	0.53842145
21	0xbea644ae	-0.32474273
22	0x3f512211	0.81692606
23	0x3f4fcc9b	0.8117158
24	0xbe810714	-0.25200713
25	0xbef37862	-0.47552782
26	0xbdfaaef0	-0.12240398
27	0x3e2f0828	0.17092955
28	0xbf94d276	-1.1626728
29	0xbf534f8e	-0.82543266
30	0x3d5864f5	0.052830655
31	0xbf8bc5f5	-1.0919787
32	0x3edeb108	0.4349444
33	0x3f0b4392	0.5439998
34	0xbf560ee3	-0.83616465
35	0x3f346944	0.7047312
36	0xbf0509cf	-0.5196809
37	0x3e02940d	0.1275179
38	0x3f030233	0.5117523
39	0x3f09d837	0.5384554
40	0xbfa7438c	-1.3067489
41	0x3dd2268f	0.10261261
42	0xbf2d318e	-0.6765374
43	0xbf03b7fb	-0.51452607
44	0xbf531e37	-0.8246798
45	0x3f005f47	0.5014538
46	0x3d49a8d0	0.049233258
47	0x3d850e40	0.064968586
48	0xbf0e257a	-0.55525935
49	0x3f004e32	0.50119317
50	0xbfa58770	-1.2931957
51	0xbf26088c	-0.6485679
52	0xbf88b7b3	-1.068106
53	0xbf167cb3	-0.58784026
54	0xbf612dc8	-0.8796048
55	0xbf22d86e	-0.63611495
56	0x3ea0d4af	0.31412265
57	0xbec6a84a	-0.3880027
58	0x3f3b1e68	0.7309327
59	0xbf15923a	-0.5842625
60	0xbe0fe915	-0.14053757
61	0xbf7f1cce	-0.9965333
62	0x3d69ee88	0.057112247
63	0x3f563e86	0.83689153
64	0xbe807bbe	-0.25094408
65	0xbf7fbcd3	-0.998975
66	0xbf170b4a	-0.590016
67	0xbe8be522	-0.27323252
68	0xbf149f8f	-0.5805597
69	0x3f7a020f	0.9765939
70	0xbe32f4f8	-0.1747626
71	0xbe3a3ce4	-0.1818729
72	0xbf227491	-0.63459116
73	0xbf55a9df	-0.8346233
74	0xbde634a1	-0.11240507
75	0x3f4d8539	0.80281407
76	0xbe939700	-0.2882614
77	0xbf8adbe8	-1.084836
78	0x3f0bf970	0.54677486
79	0xbef6bf10	-0.48192644
80	0xbf93ae6d	-1.1537606
81	0x3f93314e	1.1499422
82	0xbf4d7833	-0.80261534
83	0xbf49b0c3	-0.7878534
84	0xbf96aafd	-1.1770931
85	0xbeb1b9e1	-0.34712127
86	0x3e2ba8d0	0.16763616
87	0xbe9a494b	-0.30134043
88	0x3f1eb1f2	0.61990273
89	0xbf23353b	-0.637531
90	0xbf9c35dc	-1.2203937
91	0x3f0c3fea	0.54785025
92	0xbd438690	-0.04773575
93	0xbd43d8a0	-0.04781401
94	0xbfa43a35	-1.2830263
95	0x3f21a951	0.6314898
96	0xbdee426e	-0.11633764
97	0xbf4bafcd	-0.79565126
98	0x3e684f74	0.22686559
99	0x3f13176b	0.5745761
100	0xbf883654	-1.064158
101	0xbecc1525	-0.39859882
102	0x3e9babe2	0.30404574
103	0x3d879d70	0.06621826
104	0xbf5abc01	-0.8544312
105	0x3f31cc74	0.69452596
106	0xbf98021d	-1.1875645
107	0x3ea19b39	0.31563738
108	0xbe67ca52	-0.22635773
109	0x3eaa5be6	0.33273238
110	0xbf74645b	-0.9546563
111	0xbc2cd424	-0.010548625
112	0x3e04134c	0.12897986
113	0x3cd14d40	0.025549531
114	0xbf35e4bb	-0.7105214
115	0x3eff560b	0.49870333
116	0xbf8fa13b	-1.1221079
117	0xbf4294b8	-0.76008177
118	0xbf0bc25e	-0.54593456
119	0x3f83aa92	1.0286429
120	0x3c457100	0.012050867
121	0xbe85cf99	-0.26134947
122	0xbf4c2fb6	-0.797603
123	0xbee5fde3	-0.44920263
124	0xbf82774f	-1.019266
125	0xbf255b5a	-0.64592516
126	0x3de5dd2e	0.11223827
127	0xbf580935	-0.8438905

layer1.bias f4 [64]
0	0x3c82fa40	0.01598847
1	0x3f173b79	0.59075123
2	0x3ea7308e	0.32654232
3	0xbe8bda7e	-0.27315134
4	0x3d8361cf	0.0641514
5	0x3f4d7b95	0.80266696
6	0xbf297a2a	-0.6620203
7	0xbc8f4718	-0.017489955
8	0xbf33a308	-0.7017064
9	0x3f2f4327	0.6846184
10	0x3ed695cf	0.4191117
11	0x3eb69e13	0.35667476
12	0x3edd3590	0.43204927
13	0xbf0f91d9	-0.5608192
14	0xbcf24304	-0.029572971
15	0x3eb76b6e	0.3582415
16	0x3f2cae8c	0.6745384
17	0xbc4b366e	-0.012403114
18	0x3ee94449	0.4555991
19	0xbe97e507	-0.29666921
20	0x3efbe356	0.4919688
21	0x3f47c2bd	0.7803152
22	0x3f438b72	0.7638465
23	0xbd111bb0	-0.035426795
24	0x3f0396f4	0.5140221
25	0x3f145990	0.5794916
26	0x3dcc9de4	0.09991053
27	0xbc436fc5	-0.011928503
28	0x3e9ccd5e	0.30625433
29	0x3f153502	0.5828401
30	0x3f171347	0.5901379
31	0x3f24e72b	0.64415234
32	0x3f3fe392	0.7495662
33	0x3edf14ac	0.4357046
34	0x3e435480	0.19075203
35	0xbf02464a	-0.508885
36	0xbca2cba4	-0.019872494
37	0x3f5ecf2c	0.8703487
38	0xbe7050b6	-0.23468289
39	0x3f37450b	0.71589726
40	0xbbe0af3c	-0.006856827
41	0x3b08fe81	0.002090365
42	0x3e27c20f	0.16382621
43	0xbede49a5	-0.4341556
44	0x3eb8d5cb	0.3610061
45	0x3efa38b6	0.48871392
46	0xbebbf2d3	-0.36708698
47	0x3f36e837	0.7144808
48	0x3e824d93	0.2544981
49	0xbf3244cf	-0.69636244
50	0x3dbc473a	0.09193273
51	0xbef3bb4d	-0.47603837
52	0x3f085c2c	0.53265643
53	0x3ea8243a	0.3284014
54	0xbf1e3ef1	-0.6181479
55	0x3d153879	0.03643081
56	0xbf0cbabc	-0.54972434
57	0x3f2426cc	0.641217
58	0x3d68cb3e	0.05683445
59	0x3df8261f	0.12116646
60	0xbe8f12e2	-0.27944094
61	0xbc8b2573	-0.01698563
62	0xbb272c12	-0.0025508446
63	0x3f180546	0.59383047

layer2.weight f4 [64, 64]
0	0xbe2c268f	-0.16811584
1	0xbde94fb8	-0.11392158
2	0xbe78de1c	-0.24303478
3	0x3d281c23	0.04104246
4	0x3efabc02	0.48971564
5	0x3eb3dd90	0.35129976
6	0x3d3a57a0	0.045493722
7	0x3dcf2717	0.10114878
8	0x3d5bf1a4	0.053697243
9	0x3e1520fd	0.14563365
10	0xbefc74a4	-0.4930774
11	0x3cd6016c	0.026123725
12	0xbe50a22c	-0.20374364
13	0x3df12e1c	0.11776373
14	0xbd5906c8	-0.052984983
15	0xbf07f602	-0.53109753
16	0x3e71dba2	0.2361894
17	0x3f62ba12	0.8856517
18	0x3e61d766	0.22054824
19	0x3cb9f398	0.022699162
20	0x3e9eb9bb	0.31001076
21	0x3ce40d05	0.02783824
22	0x3e724d15	0.23662217
23	0x3da780f8	0.08178896
24	0x3edd9279	0.43275812
25	0x3dbd8c6b	0.09255298
26	0xbcef329d	-0.029198939
27	0xbe1df055	-0.1542371
28	0xbefe51c6	-0.49671763
29	0xbf589eec	-0.84617496
30	0xbee2cf21	-0.44298652
31	0x3eee9ed2	0.46605545
32	0xbe8bfcde	-0.2734136
33	0x3d4d07dc	0.050056323
34	0x3ef35fb8	0.47533965
35	0xbd17f788	-0.0371013
36	0xbdf188d5	-0.11793677
37	0x3ece3ddb	0.40281567
38	0xbe5c9089	-0.21539511
39	0xbeed7e13	-0.4638525
40	0x3f71dd82	0.9447862
41	0xbe24d8b7	-0.16098295
42	0x3dae5325	0.08511952
43	0xbc1ee4c0	-0.009698093
44	0xbf2acb3e	-0.6671637
45	0x3ed69781	0.41912463
46	0xbdea40ca	-0.11438139
47	0x3eaa543f	0.332674
48	0xbedbe761	-0.42949966
49	0x3d96faba	0.07372041
50	0x3e81c798	0.2534759
51	0x3dea80ca	0.11450346
52	0x3ece3f89	0.40282848
53	0x3ee195cd	0.440596
54	0x3d46abb0	0.048503578
55	0x3ec76dc7	0.3895094
56	0x3d36b150	0.044602692
57	0x3e663f0c	0.22484988
58	0x3d24b53a	0.040211894
59	0x3f18ef2b	0.5973994
60	0xbc4c9dc0	-0.012488782
61	0xbe080ae9	-0.13285412
62	0x3da3fbc6	0.08007006
63	0xbee14db3	-0.44004592
64	0x3ebf4f83	0.3736535
65	0x3e48abad	0.19596739
66	0x3ea5ba3a	0.32368642
67	0xbd19cf7d	-0.037551392
68	0xbd6511e7	-0.055925276
69	0xbaaa0d8f	-0.0012974011
70	0x3df84a46	0.121235415
71	0x3e82443d	0.25442687
72	0x3d7724c4	0.060337797
73	0x3d9f32cd	0.07773361
74	0xbe620b6d	-0.22074671
75	0xbea5226a	-0.32252818
76	0x3ec61cb1	0.38693765
77	0xbc677d70	-0.014129028
78	0x3ed02005	0.4064943
79	0x3ebda322	0.37038523
80	0xbea67195	-0.3250853
81	0xbeb3f4bd	-0.35147658
82	0x3d936856	0.07197635
83	0x3d8edfa8	0.06976253
84	0x3dfdfc20	0.12401605
85	0x3e270ecf	0.16314243
86	0xbdc8abcf	-0.09798395
87	0xbd099250	-0.0335868
88	0xbdf5f4e1	-0.120095976
89	0x3db07d8e	0.08617698
90	0x3e7d04cb	0.2470886
91	0x3edc7534	0.4305817
92	0x3dc84a19	0.09779758
93	0x3e9effef	0.31054637
94	0x3e88d40f	0.26724288
95	0xbeffab24	-0.49935257
96	0x3e9e5fb0	0.3093238
97	0x3e77d4a8	0.24202216
98	0xbe8404e0	-0.2578497
99	0x3dd3f3ec	0.10349259
100	0x3ef56ade	0.47933096
101	0xbe73b0c9	-0.23797907
102	0x3ecfa85d	0.40558138
103	0x3e854605	0.26029983
104	0xbf03a803	-0.5142824
105	0x3ec75968	0.389354
106	0x3e9fe0dd	0.31226245
107	0xbd8ea20a	-0.069645
108	0x3ea7d148	0.32776856
109	0xbdc61f65	-0.09673957
110	0xbdc48df4	-0.09597388
111	0x3dbd807b	0.09253021
112	0x3eefb1bf	0.46815297
113	0x3df72464	0.12067488
114	0x3e97d47a	0.29654294
115	0xba295600	-0.00064596534
116	0xbd9cfa2f	-0.07664906
117	0x3dac4cfa	0.084131196
118	0xbd988b54	-0.0744845
119	0x3e8303ae	0.25588745
120	0x3d6f1b70	0.058375776
121	0xbe13d55b	-0.14436857
122	0x3e70ce5e	0.23516223
123	0xbed55824	-0.41668808
124	0x3df81c22	0.12114741
125	0x3ebd3df9	0.36961344
126	0x3ed54df6	0.41661042
127	0x3edbb885	0.42914215
128	0xbdb04fd0	-0.08608973
129	0x3c6fa240	0.014626086
130	0x3d3f0164	0.046632186
131	0xbdd245aa	-0.102671936
132	0xbdc33b54	-0.095328
133	0xbc45a6d0	-0.012063697
134	0x3c86f788	0.016475454
135	0x3dbfd21c	0.09366247
136	0x3d8a4906	0.06752209
137	0xbc796350	-0.015221432
138	0x3c3e7ed0	0.011626914
139	0xbd7e635c	-0.062106475
140	0xbc50bea0	-0.012740761
141	0x3d92bde6	0.071651265
142	0xbde3803a	-0.11108442
143	0x3dbc629a	0.09198494
144	0xbdc5c672	-0.09656991
145	0x3b519180	0.0031977594
146	0x3dc31e56	0.095272705
147	0xbdc022b2	-0.093816176
148	0xbdbe303c	-0.09286544
149	0xbda8ff42	-0.082518116
150	0x3da9e30a	0.082952574
151	0x3d25d718	0.040488333
152	0xbd43d888	-0.047813922
153	0xbd921600	-0.071331024
154	0x3dd1ed7e	0.10250376
155	0xbdf1d032	-0.11807288
156	0xbd89dc0e	-0.06731425
157	0x3d07dbd0	0.033168614
158	0x3c80dc10	0.015729934
159	0xbd5d79d0	-0.054071248
160	0x3dbe2990	0.09285271
161	0xbdeb618a	-0.114932135
162	0xbafec880	-0.0019438416
163	0x3dc8adde	0.097987875
164	0xbd2d0e78	-0.042250127
165	0x3d6c1898	0.057640642
166	0xbddc9818	-0.10771197
167	0xbde1a7de	-0.11018346
168	0x3d71be30	0.059019268
169	0xbdd4a830	-0.10383642
170	0x3c8cac88	0.017172113
171	0x3dd6403e	0.10461472
172	0x3cf047e0	0.029331148
173	0xbca3e118	-0.020004794
174	0xbdf6882a	-0.1203769
175	0x3bbc2620	0.0057418495
176	0xbd307404	-0.04307939
177	0xbd965fe6	-0.0734251
178	0xbd69dad0	-0.05709344
179	0xbd8e088c	-0.06935224
180	0x3b9ad000	0.0047245026
181	0x3db37a24	0.08763531
182	0x3df20dd6	0.11819045
183	0x3cd43740	0.025905252
184	0xbd85c644	-0.06531957
185	0xbd856e0a	-0.06515129
186	0xbdb7f85c	-0.08982918
187	0x3d0886cc	0.033331677
188	0xbdf5ecee	-0.120080814
189	0xbc9c19f8	-0.019055352
190	0x3c8c4258	0.017121479
191	0xbd178310	-0.036990225
192	0xbdcb6222	-0.09930827
193	0xbd9efc44	-0.077629596
194	0x3d8c83fa	0.0686111
195	0x3d71b014	0.05900581
196	0xbde85072	-0.11343469
197	0xbcc20078	-0.023681864
198	0x3df9507e	0.12173556
199	0x3d057880	0.03258562
200	0xbcc2fb78	-0.02380155
201	0xbdb1af3a	-0.08676
202	0xbdaf2fe0	-0.08554053
203	0xbd3fab74	-0.04679437
204	0xbd7259d0	-0.059167683
205	0xbda71ab8	-0.08159393
206	0xbd3fe060	-0.04684484
207	0x3dfecaa6	0.12440996
208	0x3c9389a8	0.018009976
209	0x3d910c1c	0.07082388
210	0xbdfdaa30	-0.12385976
211	0x3d13e03c	0.03610252
212	0xbdfc6e7e	-0.12325762
213	0xbdac66a8	-0.084180176
214	0xbdf3e012	-0.119079724
215	0x3cb93d58	0.022612259
216	0x3c0b4f10	0.008502737
217	0xbde49940	-0.111620426
218	0x3dfe39a0	0.12413335
219	0x3d6e06cc	0.05811195
220	0x3c50c9b0	0.012743399
221	0x3df7d2cc	0.12100753
222	0x3dabcb10	0.083883405
223	0xbded7cfe	-0.11596106
224	0xbd41ea08	-0.04734233
225	0x3c985130	0.0185934
226	0x3d4e30e4	0.050339594
227	0x3d850d1e	0.064966425
228	0xbd046570	-0.0323233
229	0xbda1736c	-0.07883343
230	0xbd9ae73e	-0.07563637
231	0x3dd27788	0.10276705
232	0x3ba67fc0	0.005081147
233	0x3d8451e6	0.064609334
234	0x3df25906	0.11833386
235	0xbdf06140	-0.11737299
236	0x3dceeca2	0.10103728
237	0x3d6cc91c	0.05780898
238	0xbdd32600	-0.10309982
239	0xbdf2e766	-0.11860542
240	0x3b918600	0.004441023
241	0x3d8016ca	0.06254347
242	0x3ce682c0	0.028138518
243	0xbded14aa	-0.11576207
244	0xbd9e122c	-0.0771831
245	0x3d527998	0.051385492
246	0x3be4b2c0	0.0069793165
247	0xbde02c4a	-0.109459475
248	0xbc356b70	-0.011072978
249	0xbb0aa940	-0.002115801
250	0xbd5600f4	-0.052247003
251	0x3ddfc28e	0.1092578
252	0xbde88244	-0.11352971
253	0x3cc1f940	0.023678422
254	0xbda17444	-0.07883504
255	0xbc62c500	-0.013840914

layer2.bias f4 [64]
0	0x3e1a827a	0.15088835
1	0x3dbec7d3	0.09315457
2	0x3c005ed0	0.007835105
3	0xbdd92086	-0.106019065
4	0x3d7f0cfb	0.06226824
5	0x3d5a9a08	0.053369552
6	0x3c95a669	0.018267827
7	0x3e00f1ea	0.12592283
8	0x3e69a216	0.22815737
9	0xbddc1377	-0.107459
10	0xbdce3cbd	-0.10070179
11	0xbcb6154c	-0.022226952
12	0x3d923cc2	0.07140495
13	0x3e477f57	0.1948217
14	0xbda4c29c	-0.08044931
15	0x3d60ecb7	0.05491325
16	0x3e33ce4a	0.17559162
17	0x3e4079b5	0.18796428
18	0x3e043d4f	0.12914012
19	0xbd490896	-0.049080454
20	0x3dedc06a	0.11608966
21	0xbcc14b7e	-0.023595568
22	0x3e08a0dc	0.13342613
23	0x3df7a8f6	0.120927736
24	0xbdfd4402	-0.12366487
25	0xbd0a47cd	-0.03375988
26	0x3d491464	0.04909171
27	0x3e014196	0.12622675
28	0x3e515eb2	0.2044628
29	0x3d3ed1ba	0.04658673
30	0x3db55c1e	0.088554606
31	0xbd72f9b6	-0.059320174
32	0xbdefbd19	-0.117059894
33	0x3df2d3de	0.11856817
34	0x3d03d5ee	0.03218644
35	0x3d1e8043	0.03869654
36	0x3def3c9b	0.116814815
37	0x3dbb9d72	0.0916089
38	0x3e1a5264	0.15070492
39	0xbe108ac7	-0.1411544
40	0x3e245b21	0.16050388
41	0x3d660078	0.05615279
42	0xbce7a2c8	-0.028275862
43	0xbd187cfa	-0.037228562
44	0x3e2d325c	0.16913742
45	0x3d8472c6	0.06467204
46	0xbd1940c9	-0.0374153
47	0x3d8b25ad	0.067942955
48	0x3e3d80a7	0.18506108
49	0x3d8c7990	0.06859124
50	0x3d6318ef	0.0554437
51	0xbdc17b0e	-0.09447299
52	0x3e23b8be	0.15988442
53	0x3e172009	0.14758314
54	0x3d7fbf5c	0.062438354
55	0x3d4c24eb	0.049839895
56	0x3d6bad19	0.057538126
57	0xbd032f71	-0.032027666
58	0x3ddb4809	0.10707099
59	0x3e1bbc5a	0.15208569
60	0xbd6019d4	-0.05471213
61	0xbde45a58	-0.11150044
62	0x3db134b0	0.086526275
63	0x3d5a027a	0.053225018

layer3.weight f4 [6, 64]
0	0xbe92bcee	-0.28659767
1	0x3ed36d96	0.41294545
2	0xbc2bd5a0	-0.010487944
3	0x3de8c7cc	0.11366233
4	0x3e7c3a05	0.24631508
5	0x3ec84193	0.3911253
6	0x3d911e70	0.070858836
7	0x3ecf6d95	0.40513292
8	0xbdff45a2	-0.12464453
9	0xbd8be225	-0.06830243
10	0x3e3fcbd4	0.18730098
11	0xbdf574c7	-0.11985164
12	0xbe8ba4aa	-0.27274066
13	0x3e9498da	0.29022866
14	0xbcd8e3c0	-0.026475787
15	0xbef0c100	-0.47022247
16	0x3eb943dd	0.36184588
17	0x3e52d80a	0.20590225
18	0xbeb5183c	-0.35370052
19	0xbdb67274	-0.08908549
20	0xbbecace0	-0.0072227567
21	0xbd63f6cd	-0.05565529
22	0xbe84e933	-0.25959167
23	0xbb77d280	-0.0037814677
24	0xbdae0ed6	-0.084989235
25	0xbd9df919	-0.07713527
26	0xbdc74188	-0.09729296
27	0x3e819b25	0.25313678
28	0x3e73ee95	0.2382148
29	0xbeda0663	-0.42582998
30	0x3ec2eca4	0.38071167
31	0xbcaae472	-0.020860884
32	0xbdd92078	-0.10601896
33	0x3ed010e3	0.40637884
34	0xbcc3d819	-0.023906754
35	0x3d54d58d	0.05196147
36	0xbe9f6c07	-0.31137106
37	0x3ea6384b	0.32464823
38	0xbec56ecd	-0.38561097
39	0x3e4d7b0b	0.20066468
40	0x3ec8c23d	0.39210692
41	0xbb9e9d80	-0.004840553
42	0xbd306d64	-0.043073073
43	0x3dae74fd	0.085184075
44	0x3e643261	0.22284843
45	0x3ecb0594	0.39652693
46	0x3e38f29d	0.180613
47	0xbee738fc	-0.45160663
48	0x3e3aadd2	0.1823037
49	0xbdb48f3c	-0.08816382
50	0xbcc9cd88	-0.024634138
51	0x3d7044cd	0.058659364
52	0xbe985b1b	-0.29757008
53	0x3ea5942c	0.3233961
54	0x3e8ceda2	0.2752505
55	0x3ebbf34f	0.36709067
56	0x3e789553	0.24275713
57	0x3e9c630c	0.30544317
58	0x3dd6ecba	0.10494371
59	0x3eb8df86	0.36108035
60	0xbd915848	-0.070969164
61	0xbd1dd179	-0.038529847
62	0x3e9070f9	0.2821119
63	0x3c883130	0.016625017
64	0xbd242904	-0.040078178
65	0x3d3db556	0.046315514
66	0x3ce841d8	0.02835171
67	0xbc521ef0	-0.012824759
68	0xb9735659	-0.00023206453
69	0xbe0f9ca3	-0.14024596
70	0x3cfb8ce8	0.030706838
71	0x3ccddf9d	0.025131041
72	0xbd0dd4ee	-0.034626894
73	0x3cf8a61a	0.03035264
74	0x3d425b50	0.047450364
75	0x3df679ce	0.12034951
76	0xbde4cccb	-0.11171874
77	0x3dc4ba9e	0.09605907
78	0x3da359a0	0.07976079
79	0x3d03c886	0.032173656
80	0x3d32819c	0.043580636
81	0xbe0f1b2c	-0.13975209
82	0xbb3d280a	-0.0028862976
83	0xbd40e394	-0.047092035
84	0x3d2c8db4	0.042127326
85	0x3d342b42	0.043986566
86	0x3dcba8fe	0.09944342
87	0xbdb83384	-0.08994201
88	0xbd01bdc8	-0.03167513
89	0x3d8ac6ce	0.067762
90	0x3daf4588	0.08558184
91	0xbd02a7a6	-0.031898163
92	0xbdd4bfb7	-0.10388129
93	0x3d931b72	0.07182969
94	0x3db6e7c1	0.08930922
95	0x3c2b2a50	0.0104471
96	0x3ca3b948	0.01998581
97	0xbc86f7bf	-0.016475556
98	0x3db63b04	0.08897975
99	0xbdc9de62	-0.09856869
100	0xbcc9d1f2	-0.024636243
101	0x3d4135ce	0.047170453
102	0x3d5c6e92	0.053816386
103	0x3db66f46	0.089079425
104	0x3d62d6c6	0.055380605
105	0xbb320e00	-0.002716899
106	0x3d81fd08	0.0634709
107	0x3cba8119	0.022766637
108	0xbd4dc187	-0.05023339
109	0xbe0cf298	-0.13764417
110	0x3d6f0c50	0.05836135
111	0xba24930e	-0.00062780164
112	0x3d917ee5	0.07104281
113	0x3db3bf52	0.08776726
114	0x3db1318c	0.086520284
115	0xbd7b0a88	-0.06128934
116	0xbd52f799	-0.05150566
117	0x3d34e609	0.04416469
118	0xbe0dbd1c	-0.13841671
119	0x3d896b80	0.06709957
120	0xbdbcf7e4	-0.09226969
121	0xbd68d6e8	-0.056845576
122	0x3da1514e	0.07876836
123	0x3d9bfd4f	0.07616674
124	0x3d4764ac	0.048679993
125	0x3df2c9e6	0.11854915
126	0xbdfb7f6b	-0.122801624
127	0x3d413567	0.04717007
128	0xbc5e4a0f	-0.013567462
129	0x3e6ec50b	0.23317353
130	0xbd05cba4	-0.03266491
131	0x3d8fbc4a	0.07018335
132	0x3f0e3887	0.55555004
133	0x3edeb0cf	0.4349427
134	0xbdab8aae	-0.083760604
135	0x3ed317ec	0.41229188
136	0xbea4e2c2	-0.32204252
137	0xbd957f47	-0.07299667
138	0x3e5c4e8a	0.21514335
139	0x3e8ee634	0.27910006
140	0x3de80093	0.113282345
141	0x3f084fb4	0.5324662
142	0x381f1000	3.7923455e-05
143	0xbd826e87	-0.06368738
144	0x3f01bf34	0.5068238
145	0x3f0036bd	0.50083524
146	0xbdb9d979	-0.09074683
147	0x3d06180b	0.032737773
148	0x3d8352b0	0.06412256
149	0xbdd7d6e7	-0.10539036
150	0x3d520c0b	0.051281016
151	0x3dbca02f	0.0921024
152	0xbda21d02	-0.07915689
153	0xbde9d5d4	-0.114177376
154	0xbdba1932	-0.09086837
155	0x3f0964dc	0.53669524
156	0x3f044e1e	0.516817
157	0xbdca5924	-0.098802835
158	0x3f11f1e5	0.57009727
159	0x3cae3f16	0.021270316
160	0xbd113346	-0.03544929
161	0x3ea0dc94	0.31418288
162	0xbd6b525d	-0.057451595
163	0xbdcd2a87	-0.10017877
164	0xbdeaf105	-0.11471752
165	0x3ee3713d	0.4442233
166	0xbd341eb4	-0.043974593
167	0x3eea6dc0	0.45786858
168	0x3ed70601	0.41996768
169	0x3d27e194	0.040986612
170	0x3d0ae63c	0.033910975
171	0xbacbd43d	-0.0015550923
172	0x3f06b767	0.526236
173	0x3ee9d7c8	0.4567244
174	0x3ec093a6	0.37612647
175	0xbdd90cea	-0.10598166
176	0x3f0d931c	0.55302596
177	0xbc752020	-0.0149612725
178	0xbd995604	-0.07487109
179	0xbde0a338	-0.109686315
180	0x3c8559ae	0.016278114
181	0x3f1395f8	0.5765071
182	0x3f0efbc0	0.5585289
183	0x3edfdf93	0.4372526
184	0x3ef9d9e7	0.4879906
185	0x3ee21fa3	0.44164762
186	0xbdd4477a	-0.103651956
187	0x3ef65c16	0.4811713
188	0xbdb83d22	-0.08996035
189	0xbd340229	-0.043947373
190	0x3f0f9b3b	0.5609624
191	0xbd34e27c	-0.044161305
192	0x3f2ffc52	0.68744385
193	0xbe525bc1	-0.20542814
194	0xbdd6b7c6	-0.10484271
195	0xbdd272ae	-0.1027578
196	0x3e65d7e0	0.22445631
197	0x3df6374e	0.12022267
198	0xbb774706	-0.0037731542
199	0x3ea102b1	0.31447366
200	0xbee9734b	-0.45595774
201	0xbd8c6052	-0.06854309
202	0x3cdf3285	0.02724577
203	0x3efd4307	0.494652
204	0x3f2afbc0	0.6679039
205	0x3ed135e5	0.4086143
206	0x3b5f6ac0	0.0034090728
207	0x3f1e0e41	0.617405
208	0x3e48b7b4	0.19601327
209	0x3ea498dc	0.32147872
210	0x3f1f2d2e	0.62178314
211	0xbdc413b3	-0.0957407
212	0xbc04c0b0	-0.008102581
213	0xbd586b0e	-0.05283647
214	0x3f2368b4	0.6383164
215	0x3d9600ae	0.073243484
216	0xbdceb91e	-0.10093902
217	0x3a6c873c	0.0009022837
218	0xbdc1f0b0	-0.094697356
219	0x3e0044f9	0.12526311
220	0x3e3d0402	0.1845856
221	0x3f231a9c	0.6371248
222	0x3e209bea	0.15684476
223	0x3d28bd86	0.04119637
224	0x3d67905f	0.056534167
225	0x3d6a057d	0.05713414
226	0xbae7e553	-0.0017692245
227	0xbc56ffce	-0.013122512
228	0x3f0cd2bc	0.55009055
229	0x3ea98d11	0.33115438
230	0x3f10e17e	0.56594074
231	0x3ede4886	0.43414706
232	0x3e3c6756	0.18398795
233	0xbdf2e4fe	-0.11860083
234	0xbddff15e	-0.10934709
235	0x3da65845	0.08122305
236	0xbcf8bcd3	-0.030363476
237	0x3e913541	0.28360942
238	0x3f02884b	0.50989217
239	0x3f21b345	0.6316417
240	0x3e8e8590	0.27836275
241	0x3d9350d0	0.07193148
242	0x3d342c5e	0.043987624
243	0xbdbaff97	-0.09130781
244	0x3f28f2b7	0.65995353
245	0x3d8ffa00	0.070301056
246	0x3eab14b8	0.33414245
247	0x3e15a1ff	0.14612578
248	0x3ecdc7c2	0.40191466
249	0x3de37cd2	0.11107792
250	0xbd91cddb	-0.07119342
251	0x3ecbee87	0.3983042
252	0x3d4f1fcc	0.050567433
253	0xbe053030	-0.13006663
254	0x3e350699	0.17678298
255	0xbd8cc81c	-0.06874105

layer3.bias f4 [6]
0	0x3d10a2ce	0.035311513
1	0xbd9b020d	-0.075687505
2	0x3e511295	0.20417245
3	0x3db5dca4	0.088799745
4	0x3cf3e336	0.029771429
5	0xbdbd6940	-0.092485905

layer4.weight f4 [2, 6]
0	0x3e75a394	0.23988181
1	0xbea0ea11	-0.31428578
2	0x3f1f0689	0.62119347
3	0x3f4ac54e	0.79207313
4	0xbe22c9e5	-0.15897329
5	0x3ed08c30	0.40731955
6	0x3efc7213	0.49305782
7	0x3d74fb39	0.059809897
8	0x3e9b2764	0.3030349
9	0xbf1c5d59	-0.6107994
10	0xbc253387	-0.010083086
11	0x3eb88ea8	0.36046338

layer4.bias f4 [2]
0	0xbe98dc7b	-0.29855713
1	0x3e01cb88	0.12675297
