ppo_critic.pth (torch, 19543 bytes, 5 tensors)

layer1.weight f4 [64, 2]
00000000: dbe5 313f 92d3 08bf db6a 5bbe bc71 843e
00000010: 4f6d 013e 8f4f 08bf a20f 18bf c0f5 e7bd
00000020: d612 fc3e 9f38 31bf 01ab 29bf ae66 173f
00000030: bb4e 17bf df50 0dbf 599e 11be 2f7e 94be
00000040: 8a2f cfbe ff30 283f c96c 28bf 877b cebe
00000050: 70ac f7bd 1865 823e 988a a1bd 96cc c93e
00000060: 7490 37bf b68d ccbc cdd7 2dbd 41ed 073f
00000070: e018 bebe dbaf c9be 7756 0d3f 1072 1abd
00000080: 2830 50be 6a81 a73e 93ed 193f 20b3 17bf
00000090: 75b5 28bf ad8b 723d 97ae 323f 4838 21bf
000000a0: f02d 07be e89f 663d 8301 25bf 4574 d43d
000000b0: 07db 0c3f 47fb 023f 30b3 353e 22e6 293d
000000c0: 33e5 a4be 2ca1 cabe 22d8 9e3e 804c d2be
000000d0: 0824 663e 3c24 293e 72f7 cbbe 9868 ebbe
000000e0: 47d9 f1bd 1f01 713e 19dc 463e 5ced eabd
000000f0: dd96 b0be dd22 873e 728d 9f3d f79a 2dbf
00000100: a395 6a3e 771c a63e 0212 8fbe 8595 e03e
00000110: be5b 233b 9893 c1be 78ab 793e 2715 003f
00000120: 2721 d73d afb2 2a3f abd5 08bf ab2c 47bf
00000130: dccb b03c 0a85 9cbe e065 3a3d b6d4 d53e
00000140: 273b 283f c01e cabd c740 26be 483c ea3e
00000150: 867e a63e 19e2 06bf ba92 1abf f245 26bf
00000160: 8c16 9bbe dfe1 853e 0078 75ba 6095 dfbd
00000170: 8a35 273e 0529 2abf a07f 443e 8750 bebe
00000180: 9fda 53be 00cd eb3e 50fc 1c3d c097 e9bd
00000190: 4995 90bd 8150 3dbf fd77 1f3e bcbc dcbe
000001a0: 052e 8b3e 8a54 bdbe 00aa 7539 398a e5be
000001b0: 0d7b 043f f823 8b3e 964f fd3e f067 0cbd
000001c0: e0c1 d73e 05e8 433f 0d37 073f 0026 813b
000001d0: 4216 fb3e a7f1 98bb bdbb b43d 9f0b 263d
000001e0: 053b babe 48bd 0b3f 0050 2f3c 1037 693d
000001f0: a2d5 6ebd 8c36 2e3e 84a4 48be 3256 d0be
0.69491357 -0.5344783 -0.21427481 0.25868022 0.12639354 -0.53246397 -0.59398854 -0.1132617
0.4923312 -0.6922702 -0.66276556 0.5914105 -0.5910451 -0.55201524 -0.14220561 -0.2900252
-0.40465957 0.6569976 -0.6579099 -0.4032862 -0.12093437 0.25467753 -0.07887763 0.394139
-0.7170479 -0.024969917 -0.04244213 0.53096396 -0.37128353 -0.3939198 0.5521006 -0.037706435
-0.2033087 0.32715923 0.60128134 -0.592577 -0.6590188 0.059215236 0.6979765 -0.62976503
-0.13201118 0.056304842 -0.6445543 0.10373739 0.5502171 0.5116467 0.17744136 0.041479237
-0.32206115 -0.3957609 0.3102427 -0.4107399 0.22474682 0.16517729 -0.39837223 -0.45978236
-0.118090205 0.23535584 0.19419898 -0.11471054 -0.344901 0.26393786 0.077906504 -0.6781458
0.22908644 0.32443592 -0.27943426 0.43864074 0.0024926509 -0.37807918 0.24381816 0.50032276
0.1050437 0.666789 -0.5345103 -0.7780253 0.021581583 -0.3057025 0.04550731 0.41763848
0.6571526 -0.09869146 -0.16235648 0.45749116 0.32518405 -0.5268875 -0.60380137 -0.6495048
-0.3029064 0.26148888 -0.00093638897 -0.10917163 0.16329017 -0.6646884 0.1918931 -0.37170812
-0.20688866 0.4605484 0.03832656 -0.11405897 -0.07059724 -0.73950964 0.15573116 -0.43112743
0.27183548 -0.3697856 0.0002342835 -0.44832018 0.5175026 0.2717588 0.49474782 -0.03427881
0.42140102 0.7652591 0.52818376 0.0039412975 0.4904042 -0.004667479 0.08824871 0.040538426
-0.36373153 0.54585695 0.010700226 0.056937277 -0.058309205 0.17012995 -0.19594008 -0.40690762

layer1.bias f4 [64]
00000000: c6e6 0bbf 74f1 b23e 385d d0be 917f b3bd
00000010: 341f d73e 4342 febe 9397 e2be e49d 5b3e
00000020: 7f7f a23e a9b0 babe 82a3 07bf 15d7 31bf
00000030: e6b6 823d 5451 753e 442f eebe 0cb9 4cbe
00000040: c656 21bf d913 2ebf e2b7 2b3f 5bdb dbbe
00000050: a0dc 013f 508f d13e c357 0abf 9c8d 013f
00000060: 9c15 343f a801 0ebf 4342 04bf 8858 82be
00000070: 9c4c bcbe c364 443e 82b9 edbe 0c15 1abf
00000080: 5237 033f 7cfb 013e 749a 623c 3ffb 03bf
00000090: a4b2 6b3d 2883 48bc c094 063f 22be 07bf
000000a0: 36d3 f9be 61d0 8d3d 23bf 50be f1ea b6bc
000000b0: faef 243f bcf1 04bf 8706 133e 9ff7 403e
000000c0: ae14 543e 2dfb 08bf 1b7b ec3e 0b0b 533e
000000d0: b31d 093f 3812 b838 370b d53e 47e2 82be
000000e0: ab0e 673e 2584 debe 711b 8c3e 52f6 b23e
000000f0: 0509 56be 7109 28bf cd8f 72be 96b7 2e3e
-0.5464901 0.3494984 -0.4069612 -0.08764566 0.42015994 -0.4965993 -0.44256267 0.21446949
0.31737897 -0.36462906 -0.5298387 -0.69468814 0.06382541 0.23956805 -0.46520436 -0.19992465
-0.6302303 -0.67999035 0.6707746 -0.42940792 0.5072727 0.4092965 -0.54040164 0.50606704
0.70345473 -0.5547128 -0.5166361 -0.2545817 -0.36777198 0.19179063 -0.46430594 -0.60188365
0.5125629 0.1269359 0.01383077 -0.51555246 0.05754341 -0.012238301 0.52570724 -0.53024495
-0.48793954 0.06924511 -0.20385413 -0.022328826 0.64428675 -0.5193136 0.14357959 0.1884446
0.20711014 -0.53508264 0.46187672 0.20609681 0.5356094 8.777197e-05 0.4161012 -0.2556326
0.22564189 -0.43460193 0.27364686 0.34953552 -0.20901878 -0.65639406 -0.23687668 0.1706222

layer2.weight f4 [64, 64]
00000000: 70ab 103d e4fb f93c 1858 233d 790b 2cbd
00000010: 0972 99bc d26b cebd 498b bebc 27fc 1fbd
00000020: efc1 763c 844c bf3d 6a1d d23d 08bc 03bd
00000030: 21b4 783d 4795 cabd 83dd b1bb 642e 53bd
00000040: 34ee c7bd 08c9 4dbd 68b7 a7bd 909e 13bc
00000050: ff44 ef3d 545c f7bc 5c39 c2bd 6bb9 88bd
00000060: 2d0d 2e3d 60ab c03b dacd 9dbd 5502 d63d
00000070: 6494 35bd 19bc 03bd 0076 993b 7de3 4fbd
00000080: bc6d 4dbc 5637 a5bd 6c80 d83d 2ee6 98bd
00000090: ec82 733d e62c b83d 39bd f3bd 30ac df3d
000000a0: 3cb1 8cbd 3991 063c a1cc a5bc cd0e e4bd
000000b0: d09c 88bd b48a bbbd 53e5 653d 87e2 ef3d
000000c0: ac42 2abd 70fa 42bc 047c 81bd f29f c03d
000000d0: aa53 c03d 6ffd 823d 28b9 d73c e2a7 a23d
000000e0: e0bd 75bc 087b bbbd 08aa 8b3c c642 f23c
000000f0: c86a d1bd c0e7 9abb 0850 6abd 34ce 04be
00000100: 8a99 8dbd 641f a33d d88c 15bd cc25 373d
00000110: 81ba 94bd a05a 2b3d 7c57 e8bd 16c6 8fbd
00000120: e012 0b3e f5ce 8bbd 78a0 6c3d d824 9e3d
00000130: aa85 263d 8f4b 113d e29b 94bd 78c0 ddbc
00000140: 10f6 b63d 8c00 303d 3b00 6b3c 4ccd 8a3d
00000150: 6c93 e4bd 6c33 bf3d 405d af3d 379f ee3c
00000160: f8cc c73d 8002 60bb fec5 85bd 27ec c8bd
00000170: aad7 cbbd 01b5 8d3d dc64 98bc 8a01 fd3d
00000180: 09ca ae3d 0538 6d3d ddca a0be 800b 3ebb
00000190: 9e93 073e dc49 55be 95bc 11be e850 713d
000001a0: a003 bbbd 5469 053d 1e77 fbbd dd9c 12be
000001b0: 7b07 bebd b062 bdbc 941c 5bbe 4e09 14bc
000001c0: e4bc 0a3e aa89 ae3d 3aa3 febd 975b 213d
000001d0: 6d89 77bd c27a 47be a6d5 e2bc a0f4 2bbc
000001e0: cfcc 0b3e 002f 19ba cd3a 2cbd 0860 823c
000001f0: 0685 853a 0097 723a 12f7 2f3d 77f6 04be
00000200: 401a 0fbc 6710 4fbd 1d64 9c3b 3b62 f53c
00000210: 8599 b2bd fcf7 023b ea44 08be 4d3a 7cbd
00000220: fa01 d93d 0535 b2bd f834 15bd 9063 d03c
00000230: 32cf d33d b196 51bd 16bc 0cbe f2b2 cdbd
00000240: f0ea e53d b8b0 6bbd e184 f338 503c 4cbd
00000250: 7a58 913d dfc2 86bd 68de f33c 0155 953b
00000260: 404c d03d 3467 033d c2ec 963d 8655 183d
00000270: 775a ba3d 428b 71bd dac5 9e3d a788 c03d
00000280: ed07 6a3d 4120 0b3e e862 d1bd c02a 963c
00000290: 9ac0 32be bc47 04be dc8e 0e3d 0e71 f6bd
000002a0: 603f d1bc 7ebf 9bbb 73b5 1e3e d97f a5bd
000002b0: d020 063d e434 dabd a058 2dbd de4c c03d
000002c0: 8832 863d 84a5 debd a560 e63d c0a8 563c
000002d0: a7a2 0a3e 658d dfbc c171 6c3e fcad 7abd
000002e0: 30b4 4f3d 68ac c5bd f7c9 6f3e 4716 8bbd
000002f0: 9b50 60bd d25e 8bbd 6791 8b3d 783b bebc
00000300: 84ff 793d acbe dfbd b019 07bd 3c56 303d
00000310: 7088 e2bd 0a6e 8a3d cc06 353d b4d2 77bd
00000320: 188d 4bbd 5ccb f73d c077 c23c 7077 f0bc
00000330: f0ca 7e3c 288d b3bd 1c8b 1b3d d451 cb3d
00000340: a0ea 4b3c 2078 ff3d 7ac3 973d 186c c13d
00000350: e07a 6c3d 6cf2 79bd 7e8f a0bd f078 e3bd
00000360: 02d3 cdbd 4438 96bd dc7a f2bd d0c0 e0bc
00000370: 1e61 c5bd f609 dabd a081 393d d8a5 f9bc
00000380: da62 98bd 0c44 0e3d 7cee 3dbd aac3 c03d
00000390: 8c06 063d e829 eebd e8f4 443d 6048 553d
000003a0: 94b9 68bd c8ce d9bc 34dd d03d e0ee 33bc
000003b0: d8e7 df3d a216 c2bd a409 e1bd da4c ab3d
000003c0: 4c88 29bd 00df b1ba f43c bbbd e841 c5bc
000003d0: b429 0a3d 9c79 03bd 7051 bfbc 1095 77bd
000003e0: a081 cb3b 0832 e03c cc02 8c3d 70db 79bc
000003f0: 00ac e1bd aa43 efbd 4489 9cbd 5095 0e3c
0.035319746 0.030515619 0.039878935 -0.04200313 -0.018731134 -0.10079159 -0.023259776 -0.03905883
0.015060886 0.09340766 0.102595165 -0.032161742 0.06071866 -0.09891754 -0.0054280176 -0.051557913
-0.097622305 -0.050240546 -0.08189279 -0.009009972 0.11683082 -0.030195393 -0.09483597 -0.06675991
0.042493034 0.0058798045 -0.07705279 0.104496635 -0.04433097 -0.032161806 0.004683256 -0.05075406
-0.01253837 -0.08067195 0.105713695 -0.07465778 0.05945103 0.08992939 -0.11901326 0.10921514
-0.06869742 0.008213335 -0.020239176 -0.111356355 -0.066705346 -0.09157315 0.056126904 0.117131285
-0.04156749 -0.011900529 -0.06322482 0.09405507 0.09390958 0.06395995 0.026333407 0.07942177
-0.014998883 -0.09154326 0.01704885 0.029572856 -0.10225445 -0.004727334 -0.05720523 -0.12969285
-0.06914051 0.07964972 -0.036511272 0.04471378 -0.07262135 0.041834474 -0.11344811 -0.07020204
0.13581419 -0.06826583 0.057770222 0.07721871 0.040654816 0.03547245 -0.07256295 -0.027069315
0.089336514 0.04296927 0.014343317 0.067774385 -0.11160931 0.0933598 0.08562708 0.029128654
0.097558916 -0.0034181178 -0.06531905 -0.098106675 -0.09953244 0.069192894 -0.018602781 0.12353809
0.08534629 0.057914753 -0.31404772 -0.0028998554 0.13239905 -0.20828956 -0.14232095 0.05891505
-0.09131551 0.03257115 -0.12278579 -0.14317651 -0.092787705 -0.023118347 -0.2139762 -0.009035422
0.13548619 0.08522351 -0.12433477 0.039393988 -0.060433794 -0.19480422 -0.027689766 -0.010495335
0.13652347 -0.00058434904 -0.042048264 0.015914932 0.0010186739 0.0009254068 0.042960234 -0.12984644
-0.008734286 -0.050552752 0.0047726766 0.029954067 -0.08720688 0.0019984236 -0.13307539 -0.061579037
0.1059608 -0.08701519 -0.036427468 0.0254381 0.10342254 -0.0511691 -0.13743624 -0.10043897
0.112264514 -0.05754158 0.000116118936 -0.049862206 0.07096954 -0.065801375 0.029769138 0.0045572524
0.101707935 0.032080844 0.07369377 0.037190937 0.09099286 -0.058970697 0.07752581 0.09401064
0.057136465 0.13586523 -0.10223943 0.018330932 -0.17456284 -0.1291799 0.03480421 -0.12033282
-0.025542915 -0.0047530523 0.15498905 -0.08081026 0.032746136 -0.10654619 -0.042320848 0.09389661
0.06552607 -0.10871413 0.11248902 0.013101757 0.1353861 -0.027289102 0.23090269 -0.06120108
0.05070895 -0.096520245 0.23416887 -0.067913584 -0.05476437 -0.06805195 0.06814843 -0.023221716
0.061034694 -0.1092504 -0.032983482 0.04305099 -0.1106118 0.067592695 0.044195935 -0.060503677
-0.049695104 0.120993346 0.023738742 -0.029353827 0.015551314 -0.08767158 0.037974462 0.09927717
0.012446076 0.12474084 0.07410331 0.09444445 0.05773437 -0.061022207 -0.07839869 -0.11107051
-0.10050012 -0.073349506 -0.1183984 -0.02743569 -0.09637664 -0.10646431 0.045289636 -0.030474588
-0.074407294 0.034732863 -0.046370015 0.0941232 0.032721087 -0.11629087 0.048085123 0.052070975
-0.056817606 -0.026587859 0.10198441 -0.010982245 0.109328926 -0.09476973 -0.10988167 0.08364268
-0.04138975 -0.0013570487 -0.09142485 -0.024079278 0.033731177 -0.032098398 -0.023354262 -0.06044489
0.006210521 0.027367607 0.06836471 -0.015250072 -0.110191345 -0.11682828 -0.07643369 0.008702591

layer2.bias f4 [64]
00000000: d4ee 1abd a996 373d 15d0 5c3c d8fc f2bd
00000010: db0a fe3d 7d57 fe3c c7cb dabd 4fba d6bd
00000020: 7bbc 183e 023e 03be 5221 883d 5b7c 643d
00000030: fb27 dc3d af5f 5d3d 1f05 ec3d ca20 0b3a
00000040: 8c2c 79bd 22de 113e 5578 d2bd 7087 023e
00000050: 1d8c 86bc c3d0 093e 58a1 77bd 8b66 eb3d
00000060: 9315 46bd b959 1d3c 6ab5 f2bd 0a79 653b
00000070: 47c1 d53d dfdb ad3d 0912 42bd db81 793d
00000080: 6b05 fd3d 149a b6bd 2d05 ac3d ff4e acbd
00000090: ef89 aebc 68c4 dfbd b8ba b13d 0a4e 123d
000000a0: 81a2 34bd 78ad 73bd b4d6 22bd c075 38bc
000000b0: 6b1c b93a 20cf aabd 42d3 99bd e97a 49bd
000000c0: dacd 87bd 2c87 a93c 8341 c9bd 222c e9bd
000000d0: 0d77 c0bd c475 24bd 51ca 8f3d 5497 65bd
000000e0: 28e1 643d 816d 153d 6071 0d3e 6a13 babd
000000f0: 8a17 d33d 1220 16b8 dcab 65bd 9e98 903d
-0.03782542 0.044821415 0.013477345 -0.11864632 0.12404414 0.031047577 -0.10683399 -0.10484754
0.1491565 -0.12816623 0.0664698 0.055782657 0.10749813 0.05404633 0.11524414 0.0005307315
-0.0608335 0.14244893 -0.10276858 0.12746978 -0.016424233 0.13458543 -0.060456604 0.11494168
-0.04836042 0.009603911 -0.11851008 0.0035014772 0.10437255 0.08489203 -0.04738048 0.060914855
0.12354549 -0.08916107 0.08399425 -0.08413505 -0.021306006 -0.109261334 0.08678192 0.035718955
-0.04410029 -0.059491605 -0.039755538 -0.011258543 0.0014122849 -0.08340287 -0.07510997 -0.049189482
-0.0663106 0.020694338 -0.098269485 -0.11385371 -0.09397707 -0.040151373 0.07021011 -0.05605252
0.05587879 0.036481384 0.1381278 -0.09085734 0.10307224 -3.5792655e-05 -0.0560721 0.070603594

layer3.weight f4 [1, 64]
00000000: 35e2 44bc 6f96 323e 73b3 60bd 9ecf edbd
00000010: bb6e 6bbd 98d8 963c 6dc0 bcb8 780f e9bc
00000020: 1ad8 a33d a26c 73bc abd9 d53d 72dc 3dbe
00000030: beb2 aa3d cd96 863e 0673 f63d 95c4 29be
00000040: bcd6 643e 9f48 cd3d 3739 81bc 6ea8 f23d
00000050: e40e f13d 6efc 10be 1c19 003d f96d 343e
00000060: 5412 af3c e7c2 f63a 0803 2cbd df63 003e
00000070: 31ef debd d84d e2bd ed5d 8d3d bbd5 26bd
00000080: 6ddf f5bd 0468 8f3d 4b91 953d 8355 bdbd
00000090: f619 933e 2e85 8ebd 10cb 833d 4c65 4d3d
000000a0: 56b1 cd3c f6f1 fd3d ec1c 96bd ca66 e1bd
000000b0: ed0d 003e c096 7e3d 57c4 a8bd 872b cb3d
000000c0: 282d d8bd b422 573d 29a6 fcbd 1283 f2bc
000000d0: d964 91bd 7024 c53d 124c 263e 9453 82bd
000000e0: 8685 163e a5da 193e 42a2 8e3e 42ec 88bd
000000f0: a417 bcbd 23cd 923d ea66 cfbd 831c 1ebe
-0.012016823 0.17440198 -0.054858636 -0.116118655 -0.057478648 0.018413827 -9.000381e-05 -0.028449759
0.080002025 -0.014857443 0.104419075 -0.18541124 0.083348736 0.26286927 0.12033658 -0.16578896
0.2234754 0.10023617 -0.015774352 0.11848532 0.11770418 -0.14158794 0.031273946 0.17620076
0.021371044 0.0018826396 -0.04199508 0.12538098 -0.10885466 -0.11050004 0.069026805 -0.040731173
-0.12005506 0.07002261 0.07303103 -0.09244826 0.28730744 -0.06958996 0.064352155 0.050145432
0.025108974 0.12399666 -0.07329735 -0.110059336 0.12505312 0.062155485 -0.08240574 0.099204116
-0.10555488 0.05252333 -0.1233638 -0.029603515 -0.07099313 0.096260905 0.16239956 -0.063635975
0.14699373 0.15024813 0.27858168 -0.066856876 -0.091841966 0.07168033 -0.10127051 -0.15440564
